CameraParams.npz (npz, 1288 bytes, 4 tensors)

mtx f8 [3, 3]
3161.300074150154 0.0 1464.5889623242147 0.0 3192.227237818092 1597.9112775233311 0.0 0.0
1.0
00000000: 93aa 51a3 99b2 a840 0000 0000 0000 0000
00000010: 5084 f018 5be2 9640 0000 0000 0000 0000
00000020: 3dea 8358 74f0 a840 2661 ef25 a5f7 9840
00000030: 0000 0000 0000 0000 0000 0000 0000 0000
00000040: 0000 0000 0000 f03f

dist f8 [1, 5]
0.47961534038668224 -3.3509028515924633 0.002798242594637202 0.0030511885989388987 7.306589750834632
00000000: afb9 678a 04b2 de3f 5b4d 7d27 a6ce 0ac0
00000010: b588 c40d 57ec 663f a944 e267 cefe 683f
00000020: 7f7e e4a9 f239 1d40

rvecs f8 [4, 3, 1]
0.7317897891983448 -0.23962842010439425 -1.7284791197562428 -0.33601432536112097 0.5493605044370486 -1.4653323184581017 -0.733664921351172 -0.8074281645299346
-1.49641797032681 -0.7918214550166126 0.3715088382128665 0.6564741643552522
00000000: 7fea 846b d26a e73f d52f c5e1 24ac cebf
00000010: 3ac0 b2b8 d9a7 fbbf 1477 9a3a 4281 d5bf
00000020: 90ad 087b 5c94 e13f 5cca 184d 0072 f7bf
00000030: 4d9f 6ddb 2e7a e7bf e2cf 1097 73d6 e9bf
00000040: 9f34 3bf8 53f1 f7bf d928 b2f2 9956 e9bf
00000050: 5e26 9301 cdc6 d73f 3f64 521b d601 e53f

tvecs f8 [4, 3, 1]
1.011949031872073 4.30400457423192 15.489803351201795 -2.6005648860393196 4.909279264657635 21.61207094271956 -2.2521177743245238 0.11021878227816034
10.368844414071791 -1.922074047603082 -3.0713933734286893 19.892184936226595
00000000: 2ac0 d177 f130 f03f 5aa4 a0f9 4c37 1140
00000010: 0dc4 3d81 c7fa 2e40 9a51 85f6 f4cd 04c0
00000020: b98a 821a 1aa3 1340 f9cf 69ae b09c 3540
00000030: 8eb6 db52 5604 02c0 0c26 4a51 4c37 bc3f
00000040: 5280 cf2c d9bc 2440 1d21 6fb7 d0c0 febf
00000050: fc37 60b0 3692 08c0 bb13 633b 66e4 3340
