CameraParams.npz (npz, 2488 bytes, 4 tensors)

mtx f8 [3, 3]
946.1963547793797 0.0 644.3421713314732 0.0 947.1929336563586 357.3535179710489 0.0 0.0
1.0
00000000: cb5e 7422 9291 8d40 0000 0000 0000 0000
00000010: 73b2 52c4 bc22 8440 0000 0000 0000 0000
00000020: dd02 cd20 8b99 8d40 41c3 7502 a855 7640
00000030: 0000 0000 0000 0000 0000 0000 0000 0000
00000040: 0000 0000 0000 f03f

dist f8 [1, 5]
-0.1490771432625373 0.3775246505458604 -0.0024042145091735857 0.002254369361493387 -0.30817892205339537
00000000: e864 72b7 f514 c3bf a6cf e126 5d29 d83f
00000010: cd21 10d6 00b2 63bf 2972 c855 c177 623f
00000020: a24b e215 34b9 d3bf

rvecs f8 [29, 3, 1]
-0.03392169865397851 -0.015051624926111375 0.011617851270026729 0.09469032326038804 -0.14880676201581625 1.5836706571968169 0.304773876461198 0.16363755560207746
1.582579817420426 0.5126174301859396 0.3174340325935053 1.5537629130452317 0.6589246017989345 0.4977106474236511 1.5862331611343172 -0.1883678515677665
-0.3797882039978545 1.6606175290943 -0.45446643989339897 -0.6563600475757764 1.6709257862651379 -0.595230048499423 -0.8105794332920192 1.6393298987848735
0.6522102325927105 -0.41132740201313484 1.4336139365744185 0.8724460748351207 -0.6687390514972182 1.4146500398016848 -0.26844999292339106 0.4846137455990471
1.5774299638890183 -0.3637995593597465 0.38264543910777776 1.5836473041205923 -0.6032952200555188 0.6762240913456733 1.536009552150943 -0.8282664925933285
-0.1904576313126753 -0.07662445741751361 -1.1227074170276743 -0.2072057737221235 -0.0861284917777419 -1.2558150396190535 -0.23013102617642922 -0.10842944319382387
0.2600549847508711 -0.08616870103144898 0.013473348024420533 0.4147447093721767 -0.11707851224384835 0.08341473816500976 0.60058391510508 -0.15273474470682238
0.05866737772331783 0.8012012509031486 -0.03039201021039196 0.050892283358451584 0.1440031439613979 -0.10430717329867792 0.6150336802082711 -0.6651233165195213
-0.28926417697620543 0.3879373135309033 -0.8959659939734584 -0.3935537893760911 0.3815476447681067 -0.009085176755307671 0.18870996140077134 2.4480414433705504
-0.12548887843275155 -0.28540897773427837 2.326206860799925 0.23653416694075996 -0.757240660698764 2.323870853260924 0.4213434010520396 -0.965167801574899
2.2539899537131696 -0.2629958009684877 0.4825115119308494 2.3696952332486467 -0.5111352291288905 1.0080387363897292 2.0296744447417803
00000000: fcec af54 2f5e a1bf d475 79e6 62d3 8ebf
00000010: 1c55 099a 19cb 873f 36aa a601 a03d b83f
00000020: 010b 2498 190c c3bf f5b8 040b b756 f93f
00000030: 04dd 044a 6a81 d33f b7a9 da4e 13f2 c43f
00000040: 0a16 f236 3f52 f93f f642 40ab 5c67 e03f
00000050: a118 28d5 d650 d43f 7a45 1480 36dc f83f
00000060: 2c33 e80b e915 e53f 6e8e 63c2 7dda df3f
00000070: 0371 ee05 3661 f93f b1f8 0c11 701c c8bf
00000080: 7ef3 e42e 734e d8bf 53fd a9af e391 fa3f
00000090: 4e30 1e68 fa15 ddbf 97a5 57c9 e600 e5bf
000000a0: 64d4 60ad 1cbc fa3f 37d9 fce2 1f0c e3bf
000000b0: fb94 9947 44f0 e9bf 252d eafc b13a fa3f
000000c0: 9745 63fe e7de e43f 7115 e62a 3053 dabf
000000d0: c5d4 ca2a 15f0 f63f db17 de07 14eb eb3f
000000e0: b6a2 7770 4f66 e5bf bdbb 8314 68a2 f63f
000000f0: d1e9 0de1 482e d1bf e38e 225f e903 df3f
00000100: 0624 aa33 273d f93f e4f4 6ff2 7d48 d7bf
00000110: 1f9d bb4b 437d d83f 4e8b 398e 9e56 f93f
00000120: 2817 ffc6 314e e3bf 7d1a a3b4 a0a3 e53f
00000130: 7d4f 8dc0 7e93 f83f 7cf3 41bb 2881 eabf
00000140: fe7a e168 ea60 c8bf 4c95 ae12 a99d b3bf
00000150: 96c4 710d 9cf6 f1bf 16e6 d602 b885 cabf
00000160: d46f 704f 840c b6bf 0ad2 cf82 d117 f4bf
00000170: e480 9cf7 ee74 cdbf f9e2 7030 08c2 bbbf
00000180: 5cac aaa9 bda4 d03f 956e dee8 260f b6bf
00000190: a962 0f29 ea97 8b3f 4f52 bc64 2d8b da3f
000001a0: 78d3 267d dbf8 bdbf 9751 6c14 ab5a b53f
000001b0: a028 3cc2 fb37 e33f 6946 bde6 cf8c c3bf
000001c0: 4ad4 5389 a609 ae3f 0796 44ce 70a3 e93f
000001d0: 6340 a747 151f 9fbf 8860 49a9 8d0e aa3f
000001e0: dced eaec b16e c23f ba57 0efa dfb3 babf
000001f0: 85db cd1c 5bae e33f d144 88b1 b048 e5bf
00000200: 2019 01e5 4d83 d2bf 5eda a006 f7d3 d83f
00000210: 5f36 4ee0 c0ab ecbf 6a94 a53b fc2f d9bf
00000220: 1f45 09d0 466b d83f 5ce3 56c8 3f9b 82bf
00000230: 74a7 52e4 a527 c83f b33b 94c0 9695 0340
00000240: 8bb0 7002 0510 c0bf 09a0 5604 2444 d2bf
00000250: 99ee b657 129c 0240 6ad6 b267 c046 ce3f
00000260: 4be2 1cc4 503b e8bf f710 179a 4997 0240
00000270: dcd9 f94f 4af7 da3f 3853 dd95 a7e2 eebf
00000280: 58af 85e2 2b08 0240 5947 0957 ecd4 d0bf
00000290: d0ef ebf6 77e1 de3f fb51 42c6 22f5 0240
000002a0: 4925 9e44 385b e0bf 2252 de39 ed20 f03f
000002b0: 128b 8df4 c53c 0040

tvecs f8 [29, 3, 1]
-4.035410122068278 -2.212234161295693 15.961020388195273 2.165950383835548 -3.804737008499268 16.221574139143982 2.3179956599861384 -4.5111080541075435
15.561479461368354 2.348061174277536 -4.120865213128044 15.74083343496398 2.492286036142781 -4.147321259429592 15.264779274656126 3.8234230514503302
-4.079183791014929 18.507713099415156 4.733735197446405 -3.8704727094551465 19.93374216798805 5.0456001023036405 -3.7802791340805735 20.74558573227081
2.88962084900042 -2.1896406416962595 15.116288165449488 4.056206591957425 -1.439998612266727 13.171807323273478 4.085215871718981 -3.7904224956834285
22.46737796480441 3.7029988828518903 -4.904227976559595 17.758257355681202 4.113597153832378 -3.8883577306175123 20.047877410297783 -5.109499405534505
-1.4918427035974258 17.395060669745238 -5.585164613495149 -0.9785413428381846 18.55506390873922 -5.4890272536996765 -0.7031774225197914 18.971091983202008
-4.748981356834908 -1.4579631700518443 13.492550036653233 -4.311774022273545 -1.8068856665485977 13.15256710132378 -4.154310463191539 -0.8402208866585962
12.265727765517644 -3.6008869574669378 -0.6336213956427053 11.232701539946143 -3.860677232742886 -3.6276401361145663 15.385478667530261 -5.146149761273584
-3.8146958133919937 19.214823946297848 -3.885864798667304 -3.4629702164646377 17.085513229880938 6.2783263119171995 -0.37193279384701045 15.714611035016695
2.5056288857454962 -0.6938880104912032 16.527490188884514 2.9579732078849066 0.46686028649990213 13.855450437103283 2.914581125802411 0.6597917699161981
12.87030552838524 3.8725015049727705 -1.1142447725239781 15.039064190542275 3.2850927500238667 -1.1463617045580865 16.46205179381001
00000000: 28ec 108d 4224 10c0 36df eed2 a7b2 01c0
00000010: 042d 44dd 0aec 2f40 9aa8 7acb dd53 0140
00000020: f414 ebf4 1970 0ec0 4443 3115 b938 3040
00000030: 8048 ff4e 418b 0240 d674 e4e8 5f0b 12c0
00000040: d2e7 673c 7a1f 2f40 283c 044c d4c8 0240
00000050: a36f 2617 c47b 10c0 43e8 1d85 4e7b 2f40
00000060: f415 4ca9 33f0 0340 c405 5d62 db96 10c0
00000070: 039d 2a26 9187 2e40 7803 26d3 5e96 0e40
00000080: 3221 438e 1551 10c0 28bd 557c f981 3240
00000090: 5ed3 9347 58ef 1240 e85c 5965 baf6 0ec0
000000a0: a267 0aba 09ef 3340 835a 10cb b12e 1440
000000b0: a204 95fc 023e 0ec0 a477 e0b4 debe 3440
000000c0: 5a5f 2289 f11d 0740 849f 1050 6284 01c0
000000d0: e708 571f 8a3b 2e40 661b 8938 8e39 1040
000000e0: 1f89 1ffc 3b0a f7bf 8558 2521 f757 2a40
000000f0: 5a88 58d4 4257 1040 3ddd 8707 c952 0ec0
00000100: bbb4 1115 a677 3640 88c9 d7e0 bd9f 0d40
00000110: 8ece 4df0 ed9d 13c0 2a9a 7027 1dc2 3140
00000120: d683 f2cf 5274 1040 3c35 414c 5b1b 0fc0
00000130: 3772 a7b1 410c 3440 fece b69c 2070 14c0
00000140: 78a2 6b74 96de f7bf dd7d 30b2 2265 3140
00000150: dcf3 7664 3557 16c0 02c4 28ef 3550 efbf
00000160: 9239 17ab 188e 3240 a2f8 758f c3f4 15c0
00000170: 2d42 20f0 6d80 e6bf aa42 f57b 99f8 3240
00000180: b5ad 03f8 f4fe 12c0 9152 6230 d153 f7bf
00000190: 7323 b684 2ffc 2a40 06a1 75b0 413f 11c0
000001a0: 8bff d6f1 00e9 fcbf 2743 6d46 1d4e 2a40
000001b0: 645a e38f 039e 10c0 63ac b3e9 16e3 eabf
000001c0: 2b13 3d78 0d88 2840 ba4e 37d2 9dce 0cc0
000001d0: fa99 8a60 a046 e4bf 5598 ffa7 2477 2640
000001e0: fe56 b8be aae2 0ec0 0427 1231 6805 0dc0
000001f0: 3eb2 bc75 5dc5 2e40 f8f3 7348 a895 14c0
00000200: 63a7 153d 7f84 0ec0 36bf bfb3 fe36 3340
00000210: 2ba1 9748 4016 0fc0 bae6 95ba 29b4 0bc0
00000220: c6b6 ed31 e415 3140 e233 9d92 011d 1940
00000230: 1f80 7834 bfcd d7bf cc83 617f e16d 2f40
00000240: c484 4128 870b 0440 dbad 04a1 5434 e6bf
00000250: 4838 d698 0987 3040 a47a 72db eda9 0740
00000260: 895e 94f7 09e1 dd3f 3e6a 8599 fdb5 2b40
00000270: b9e1 c6e8 0f51 0740 8cb8 3ea1 031d e53f
00000280: 9de2 abaf 98bd 2940 f78c ac11 e2fa 0e40
00000290: cfab 9b53 f2d3 f1bf c7a5 b938 0014 2e40
000002a0: 066f 2db5 de47 0a40 b56b e75e 7f57 f2bf
000002b0: dd78 bf06 4976 3040
