CameraParams.npz (npz, 1336 bytes, 4 tensors)

mtx f8 [3, 3]
000000 2e 10 b7 a3 18 e8 a8 40 00 00 00 00 00 00 00 00
       3188.048124047017 0.0
000010 58 a0 da 8e 97 08 97 40 00 00 00 00 00 00 00 00
       1474.148005882298 0.0
000020 05 3a 84 80 99 17 a9 40 e9 89 d8 2b 1a 50 99 40
       3211.799808628161 1620.0255578836607
000030 00 00 00 00 00 00 00 00 00 00 00 00 00 00 00 00
       0.0 0.0
000040 00 00 00 00 00 00 f0 3f
       1.0

dist f8 [1, 5]
000000 5e 2c 72 af af a2 db 3f 2b ba 06 a3 fa 59 05 c0
       0.4318045819606534 -2.6689350830486283
000010 d4 ed f4 ff 94 2d 7f 3f e7 b8 48 d6 0e 4b 5a 3f
       0.0076118297868634395 0.0016048092740095722
000020 78 a2 ce a4 05 ed 14 40
       5.231466841804483

rvecs f8 [5, 3, 1]
000000 cf ca 0c 68 bf bd e7 3f 50 34 ed 49 4b 4e ce bf
       0.741912558767888 -0.23676434621521247
000010 08 11 24 ed 5d aa fb bf b4 fd 07 61 6e 5d f5 3f
       -1.7290934813800636 1.3353103437692484
000020 e4 16 fb 8a 48 ae e0 bf 84 64 58 3a 9c 7d fa bf
       -0.5212748255223372 -1.6556665686714789
000030 1a aa ca e3 ca 39 e5 3f 7d 61 aa db 25 84 ec 3f
       0.6633047532134839 0.8911313333838248
000040 a4 f9 b8 22 b8 7a f7 bf 34 cb e3 74 90 67 df bf
       -1.4674607616758317 -0.49069606223126816
000050 7c 97 4a 92 ea 8f ec 3f 79 0f 30 60 0c 95 f6 bf
       0.8925679070714376 -1.411388755544037
000060 42 c4 a6 af dc 2e d5 bf b0 36 24 e8 45 c5 e1 3f
       -0.3309852328630464 0.5553311857235794
000070 73 be e3 d6 0e 67 f7 bf
       -1.462660636341664

tvecs f8 [5, 3, 1]
000000 1e 8d 2b e7 9c d1 ee 3f 05 3d fc 6d b4 c7 10 40
       0.9630875124970861 4.195024221916587
000010 73 02 9e 3f 3f 2a 2f 40 3d fd d5 cb f5 30 ea bf
       15.582513797796514 -0.8184765797777015
000020 d0 04 b5 37 eb 77 10 40 62 80 c2 fd 9e fc 2e 40
       4.117108221457968 15.493400506966456
000030 2e c2 3a 51 95 3d f8 bf 5c 75 e2 87 bc dd 00 40
       -1.5150349782017076 2.1082697502121572
000040 8d 09 29 8c 21 03 36 40 73 ba cc c5 db 97 fb bf
       22.012230644244074 -1.7245748259116709
000050 7e 85 af a0 f3 1d 10 40 76 aa 0c fc 30 da 35 40
       4.029249678338031 21.852309945194484
000060 2e 55 ff 3e 97 3f 05 c0 fc 02 cf 97 98 07 13 40
       -2.6560501977607123 4.75741803360938
000070 12 43 76 bb 38 c1 35 40
       21.75477191579109
